notebooks/JangWansik/03_trained_model/spotify_dl_model.onnx (onnx, 34679 bytes, 7 tensors)

layers.12.bias f4 [64]
0	0xbd9c738d	-0.07639227
1	0x3be2cc40	0.006921321
2	0xbc858211	-0.016297372
3	0x3cc90b10	0.024541408
4	0xbdad670d	-0.08466921
5	0xbc17994d	-0.009252858
6	0xbc776e3b	-0.015101965
7	0x3da64a15	0.08119599
8	0xbd9967b0	-0.0749048
9	0x3dbfda21	0.09367777
10	0x3d8dae11	0.06917966
11	0x3d515a80	0.0511117
12	0xbd997741	-0.07493449
13	0x3d3e10c9	0.046402726
14	0xbae4d5e6	-0.0017458766
15	0xbd3d225e	-0.046175353
16	0xbd03e985	-0.032205123
17	0x3d85c236	0.065311834
18	0xbcc8e4a9	-0.024523096
19	0xbd5a1ac4	-0.053248182
20	0x3cf27af4	0.029599644
21	0x3b8e3ced	0.004340759
22	0x3d3d7ebf	0.046263453
23	0xbc4afdef	-0.012389644
24	0x3d801ec1	0.06255866
25	0xbd8e60ad	-0.06952033
26	0xbb77dd6e	-0.0037821191
27	0xbb94d295	-0.004541705
28	0xbdc458ee	-0.095872745
29	0x3d5c7644	0.053823724
30	0x3d89041e	0.066902384
31	0xbc11fdad	-0.008910579
32	0x3bb0d16b	0.0053960583
33	0xbcdb2172	-0.026749346
34	0x3c94a475	0.018144825
35	0x3cd03db9	0.025420057
36	0x3c4b449c	0.0124064945
37	0xbcd89d1a	-0.0264421
38	0xbcd1af0a	-0.02559616
39	0x3d421681	0.047384743
40	0x3d62172d	0.055197883
41	0x3cd778c6	0.026302706
42	0xbd24b80e	-0.04021459
43	0x3da35582	0.07975294
44	0x3d832b61	0.06404758
45	0x3b9e980e	0.0048399037
46	0x3d2e6158	0.042573303
47	0xbd81cf06	-0.06338315
48	0x3d8918d7	0.06694191
49	0xbcce7a0a	-0.025204677
50	0x3d90632c	0.070501655
51	0xbd8721da	-0.065982535
52	0xbd1edd98	-0.038785547
53	0x3d189a21	0.037256364
54	0x3c697a93	0.014250415
55	0xbcc5ebd2	-0.0241603
56	0xbd1b5132	-0.03791923
57	0xbcf87ee5	-0.030333946
58	0x3c33e229	0.010979214
59	0xbd11b5f2	-0.035573907
60	0x3da97a98	0.08275336
61	0xbd8695f8	-0.06571573
62	0x3ca94815	0.020664254
63	0xbc55068d	-0.01300205

layers.13.weight f4 [64]
0	0x3f7c9121	0.9865895
1	0x3f80bfb7	1.0058507
2	0x3f804786	1.0021827
3	0x3f7c81dc	0.9863565
4	0x3f7e34fb	0.9929959
5	0x3f80c16d	1.0059029
6	0x3f797a08	0.9745183
7	0x3f7d58f5	0.9896386
8	0x3f777d4d	0.9667557
9	0x3f80a3b4	1.0049958
10	0x3f80bddf	1.0057944
11	0x3f7ea586	0.9947132
12	0x3f804c65	1.0023314
13	0x3f7f7044	0.9978068
14	0x3f7dbd6c	0.9911716
15	0x3f82a100	1.0205383
16	0x3f825ba7	1.018422
17	0x3f7f5561	0.9973965
18	0x3f7de63e	0.99179447
19	0x3f7ef2e5	0.9958938
20	0x3f80f6ec	1.0075355
21	0x3f7b3151	0.98122126
22	0x3f81f535	1.0152956
23	0x3f7e9aa5	0.9945472
24	0x3f7ab123	0.9792654
25	0x3f81680f	1.0109881
26	0x3f812ca8	1.0091753
27	0x3f79af41	0.9753304
28	0x3f7ca2d1	0.9868594
29	0x3f81715e	1.0112722
30	0x3f7fa19a	0.9985596
31	0x3f7cb053	0.9870655
32	0x3f7d3f04	0.9892428
33	0x3f7fbfcc	0.99902034
34	0x3f8135ef	1.0094584
35	0x3f7ede73	0.9955818
36	0x3f7c015b	0.9843957
37	0x3f7c934e	0.9866227
38	0x3f80e0a3	1.0068554
39	0x3f7babb8	0.98308897
40	0x3f7dd75a	0.99156725
41	0x3f7dc472	0.99127877
42	0x3f7dc76d	0.99132425
43	0x3f796098	0.97413015
44	0x3f795d1a	0.97407687
45	0x3f80edcc	1.007257
46	0x3f7b9502	0.9827424
47	0x3f7e5dce	0.99361885
48	0x3f80023a	1.000068
49	0x3f83ff66	1.0312316
50	0x3f8605c5	1.0470511
51	0x3f7c2b54	0.98503613
52	0x3f812026	1.0087936
53	0x3f7c2db6	0.9850725
54	0x3f7c5d4e	0.9857987
55	0x3f821345	1.016213
56	0x3f81a695	1.0128962
57	0x3f7a91c2	0.9787866
58	0x3f7dd47d	0.99152356
59	0x3f7ad4c8	0.9798093
60	0x3f851aa4	1.0398755
61	0x3f7a8794	0.97863126
62	0x3f81c282	1.0137484
63	0x3f7e2580	0.9927597

layers.13.bias f4 [64]
0	0xbc70d9c7	-0.01470036
1	0xbb748c23	-0.0037314973
2	0x3afc22dd	0.0019236464
3	0xbcb4b48a	-0.022058744
4	0xb934b4a4	-0.00017233432
5	0xbc95f42f	-0.018304912
6	0xb990d326	-0.00027623138
7	0x3a22a620	0.0006204564
8	0xbcb59a43	-0.022168284
9	0x3b6c9aad	0.0036102936
10	0x3c21babc	0.009871181
11	0x3bbb66dd	0.0057190494
12	0xbb3d02d4	-0.0028840797
13	0xba95f614	-0.0011441135
14	0xbbfec09c	-0.0077744257
15	0x3c17cd77	0.009265295
16	0x3bbe5ba8	0.005809266
17	0x3ac967b9	0.0015365995
18	0xbc6cb959	-0.014448487
19	0x39e7d442	0.00044217898
20	0xbc2e7c90	-0.010649815
21	0xb8151e2e	-3.5552475e-05
22	0xbc11fb80	-0.00891006
23	0x3b43f8ca	0.0029902929
24	0xbd1f61f3	-0.03891177
25	0xbc1f56e4	-0.009725306
26	0xbbbae0e7	-0.00570308
27	0xbb99317b	-0.004675088
28	0xbc4b2c5b	-0.012400712
29	0x3c1dc024	0.009628329
30	0xbc81b022	-0.015831057
31	0x3cc5a31a	0.024125624
32	0xb9a9162f	-0.0003225072
33	0xbb0ec90b	-0.0021787311
34	0xbc896c64	-0.016775317
35	0xbafe7c77	-0.0019415756
36	0xbb82490e	-0.003975994
37	0xbc941f6f	-0.018081395
38	0xbc4981d3	-0.012299019
39	0xbc6148fa	-0.013750309
40	0xbbb10cd9	-0.005403143
41	0xbc15c2ac	-0.009140652
42	0xbbea5ca8	-0.0071521588
43	0xbc3f5474	-0.01167785
44	0xbc8d0168	-0.017212585
45	0xbbd67a35	-0.00654533
46	0xbc97200d	-0.0184479
47	0xbc9bab66	-0.019002628
48	0xbc3cce86	-0.011523848
49	0x3b7ce350	0.0038587637
50	0x3c0d7260	0.008633226
51	0xbc07f87f	-0.008298992
52	0x3c518117	0.012787125
53	0xbc4ccb6b	-0.0124996705
54	0xbc2f944b	-0.010716508
55	0x3c8ccd7e	0.01718783
56	0x3cb02ba5	0.021505186
57	0xbc81f91a	-0.015865851
58	0xbc97bce4	-0.018522687
59	0xbc390d24	-0.011294637
60	0xbc021c5c	-0.007941332
61	0xbc9d4fbd	-0.019203061
62	0xbc12dc09	-0.008963593
63	0xbcb7e0aa	-0.022445995

layers.16.bias f4 [32]
0	0xbd27a363	-0.040927302
1	0xbd8f4f3b	-0.06997534
2	0xbce0efd1	-0.027458103
3	0x3dc1e885	0.09468178
4	0x3cad5b35	0.021161655
5	0xbd142521	-0.03616822
6	0xbcdc915c	-0.026924782
7	0x3b8922d3	0.0041850596
8	0xbde50c72	-0.111840144
9	0x3d46adfe	0.048505776
10	0xbc85f618	-0.016352698
11	0xbdad375c	-0.084578246
12	0xbdba6bb5	-0.09102575
13	0x3d2b3537	0.041798797
14	0xbde3d4cd	-0.11124573
15	0xbd980ee0	-0.07424712
16	0x3d412e1b	0.04716311
17	0x3d1b80e3	0.037964713
18	0xbdcd3471	-0.10019768
19	0x3bfae675	0.007656867
20	0x3cf226c7	0.029559506
21	0xbdd1a4f7	-0.10236543
22	0xbdb1e92c	-0.08687052
23	0x3de6c41f	0.11267876
24	0xbcdbfda2	-0.02685434
25	0xbd67da6b	-0.056604784
26	0x3dde12de	0.108434424
27	0x3de6b038	0.1126408
28	0xbdc55714	-0.096357495
29	0x3de009f4	0.109393984
30	0x3cac7484	0.021051653
31	0xbdc522e0	-0.096257925

layers.17.weight f4 [32]
0	0x3f823940	1.0173721
1	0x3f8231e7	1.0171479
2	0x3f8073f5	1.0035387
3	0x3f7b1958	0.98085546
4	0x3f81f37a	1.0152428
5	0x3f811b1b	1.0086397
6	0x3f88b94b	1.0681547
7	0x3f82047a	1.0157616
8	0x3f808048	1.0039148
9	0x3f7aa974	0.97914815
10	0x3f7e6317	0.9936995
11	0x3f84da11	1.0379049
12	0x3f7eb665	0.9949706
13	0x3f81ba6b	1.0135015
14	0x3f8279b4	1.0193391
15	0x3f84d181	1.0376436
16	0x3f88ec1e	1.0697057
17	0x3f84a1f5	1.0361925
18	0x3f804f11	1.0024129
19	0x3f8e35c3	1.1110157
20	0x3f897024	1.0737348
21	0x3f790730	0.9727659
22	0x3f864531	1.0489866
23	0x3f815dfe	1.0106809
24	0x3f7e3d9c	0.9931276
25	0x3f841e45	1.0321738
26	0x3f8bbc4e	1.0916841
27	0x3f835357	1.0259808
28	0x3f80893e	1.0041883
29	0x3f7b586e	0.9818181
30	0x3f8791a7	1.0591325
31	0x3f8c7d64	1.0975766

layers.17.bias f4 [32]
0	0x3c8d997b	0.0172851
1	0x3c11f305	0.008908038
2	0x3acfc4d4	0.0015851506
3	0xbc9fb189	-0.019493835
4	0x3cad6bfc	0.021169655
5	0xbb2bee85	-0.0026234698
6	0x3d89cc7e	0.06728457
7	0x3982ad46	0.0002492463
8	0x3c43e844	0.011957232
9	0xbbbcef47	-0.005765829
10	0x3cc91ed5	0.024550835
11	0x3d61b3fc	0.055103287
12	0x3c59ddda	0.013297522
13	0xbc9c0fde	-0.019050535
14	0x3b3eea7b	0.002913146
15	0x3d3ea823	0.046547066
16	0x3d73bc03	0.059505474
17	0x3d26b0af	0.040695842
18	0x3cf1d9ef	0.029522864
19	0x3d99f6c2	0.075177684
20	0x3d8acb5b	0.06777068
21	0xbb040f52	-0.0020150733
22	0x3d6f0bb2	0.058360763
23	0x3cac179a	0.021007348
24	0xbc96363c	-0.018336408
25	0x3caadd13	0.02085737
26	0x3d9e9f8a	0.077452734
27	0x3cb41b21	0.021985592
28	0x3beacdd5	0.0071656504
29	0xbb628501	-0.003456414
30	0x3d185720	0.037192464
31	0x3d835646	0.0641294

layers.20.weight f4 [1, 32]
0	0x3d9d7b45	0.076895274
1	0x3e4b983b	0.1988229
2	0x3e3657e3	0.17806964
3	0x3d826921	0.06367708
4	0x3df3bd18	0.11901301
5	0x3d29c627	0.04144874
6	0xbe6a2238	-0.22864616
7	0x3e54a6c0	0.20766735
8	0xbc88916f	-0.01667091
9	0x3dc642c6	0.09680705
10	0xbd8ead44	-0.069666415
11	0xbe4585fd	-0.19289394
12	0xbcc8fe30	-0.024535269
13	0x3e43d576	0.19124398
14	0x3e0a1606	0.13484964
15	0xbe1c0d4f	-0.15239452
16	0xbe7c370c	-0.24630374
17	0xbe014429	-0.12623657
18	0xbdd4412b	-0.10363992
19	0xbe4be3ff	-0.19911192
20	0xbe563642	-0.20919135
21	0x3dee9098	0.11648673
22	0xbe5aeda1	-0.2137971
23	0xbde3630e	-0.111028776
24	0x3dea1edb	0.114316665
25	0x3e150e97	0.14556347
26	0xbe54d4a7	-0.20784245
27	0x3e1aeea2	0.15130094
28	0x3dc2608d	0.09491072
29	0xbce99d06	-0.028517257
30	0xbe6fa007	-0.2340089
31	0xbe325a36	-0.17417225
